bpp_model.pth (torch, 806164 bytes, 10 tensors)

encoder.lstm.weight_ih_l0 f4 [512, 3]
0	0xb8bf7afe	-9.130499e-05
1	0x3c691f6d	0.014228684
2	0xbd9d7c63	-0.076897405
3	0x3c7701b2	0.015076088
4	0x3d13badc	0.036066875
5	0xbc7b6b08	-0.015345342
6	0x3cc1bd8e	0.023649957
7	0xbd735ebb	-0.059416514
8	0x3d638e93	0.05555589
9	0xbd270006	-0.040771507
10	0x3dd75b5f	0.105154745
11	0x3ced1d91	0.028944762
12	0xbdef3e49	-0.11681802
13	0xbdba0c25	-0.09084348
14	0xbe196aa3	-0.14982085
15	0xbdf1802c	-0.11792025
16	0x3d1cb393	0.038257193
17	0x3b06062b	0.0020450454
18	0x3d61c6c3	0.055121195
19	0x3d6dca14	0.058054045
20	0x3dc77b3c	0.09740302
21	0x3d8df1e4	0.069309026
22	0x3da71615	0.08158509
23	0xbcdda099	-0.027054118
24	0xbaf89f1b	-0.0018968316
25	0xbd2525a3	-0.040319096
26	0x3c7ce3bc	0.0154351555
27	0xbd54fe37	-0.05200025
28	0x3d812450	0.06305754
29	0x3d403cf0	0.046933115
30	0xbce97ade	-0.02850097
31	0xbdada502	-0.08478738
32	0xbe249541	-0.16072561
33	0xbd918521	-0.071054704
34	0xbd992623	-0.07477977
35	0x3d7cab44	0.06168677
36	0x3bbc5c69	0.005748321
37	0xbe23e3d9	-0.16004886
38	0xbdb693fa	-0.08914943
39	0x3cb9a676	0.022662383
40	0xbde162de	-0.110051855
41	0x3bde2950	0.006779827
42	0xbc42c951	-0.011888818
43	0xbd4f1098	-0.050552934
44	0x3c89c00b	0.016815206
45	0x3d96ca7c	0.073628396
46	0xbc8b59a0	-0.01701051
47	0x3bb82e26	0.0056207357
48	0xbe02d7ac	-0.12777585
49	0xbde3a549	-0.1111551
50	0xbdf810b3	-0.1211256
51	0x3dea86c8	0.11451489
52	0x3ddb11f5	0.106967844
53	0x3baa6e82	0.005201162
54	0xbcf3c352	-0.029756222
55	0x3d43a642	0.047765978
56	0x3a2e3150	0.00066449214
57	0x3dcafe76	0.09911816
58	0x3dfc5a65	0.12321929
59	0x3dc82542	0.09772731
60	0x3d5f8e8d	0.054579306
61	0x3d3fe1b6	0.046846114
62	0x3db031c0	0.08603239
63	0x3d17109c	0.036881074
64	0xbd755926	-0.05989947
65	0x3d1c4aba	0.038157202
66	0xbd1e5aaa	-0.038660683
67	0x3ca72a4e	0.020405915
68	0xbd7adb8c	-0.061244532
69	0xbd978548	-0.07398468
70	0xbd7207ca	-0.05908946
71	0x3c17e1c8	0.009270139
72	0x3d0c9a12	0.03432662
73	0x3d8ddb84	0.06926635
74	0x3d5ae78d	0.05344348
75	0xbe0ae1d9	-0.13562717
76	0xbe0ebf82	-0.13940242
77	0x3a8ae188	0.0010595778
78	0xbca28fe7	-0.019844009
79	0x3def52bd	0.11685703
80	0x3d816653	0.06318345
81	0xbd6fe0cb	-0.05856399
82	0xba8aae24	-0.0010580462
83	0xbd434c17	-0.047679987
84	0xbd8b62bf	-0.06805944
85	0xbddd5039	-0.10806317
86	0xbd2e8a08	-0.042612106
87	0xbc12d0a8	-0.00896088
88	0xbd154bad	-0.036449123
89	0x3c7450e6	0.014911866
90	0x3da2db25	0.07951955
91	0x3d2698d0	0.040673077
92	0xbd5122a5	-0.05105843
93	0x3e15b10e	0.14618322
94	0x3ca497ec	0.020091973
95	0x3da6eae0	0.081502676
96	0xbd496188	-0.04916528
97	0xbe314e54	-0.17315036
98	0xbde84643	-0.11341526
99	0xbca99801	-0.020702364
100	0xbd266b1f	-0.040629502
101	0x3d45ccf6	0.04829117
102	0xbd7b6111	-0.061371867
103	0xbdac56bc	-0.08414981
104	0xbcf35c6b	-0.029707154
105	0x3c660b01	0.0140407095
106	0x3c0748d0	0.008257106
107	0x3d800050	0.062500596
108	0xbc9f7d4e	-0.01946893
109	0xbe0fa0a4	-0.14026123
110	0xbd4cc3c0	-0.04999137
111	0xbc3a5bae	-0.011374397
112	0x3d7b9370	0.061419904
113	0x3da0c9ad	0.078509666
114	0x3e850d55	0.25986734
115	0x3e0d1bea	0.1378018
116	0x3e6623fa	0.22474661
117	0x3ddecea5	0.10879258
118	0x3d3d4fbd	0.046218622
119	0x3da6106d	0.08108602
120	0x3dad8823	0.08473232
121	0x3d042061	0.03225744
122	0x3c200468	0.0097666755
123	0xbdc9e51f	-0.098581545
124	0xbdb2492b	-0.08705362
125	0xbe0b4384	-0.13599974
126	0x3d359881	0.044334892
127	0xbdaba38c	-0.083808035
128	0x3d01e66a	0.03171388
129	0x3d885e88	0.066586554
130	0x3d5ce054	0.053924873
131	0xbca6f30d	-0.020379568
132	0xbcf196cc	-0.02949085
133	0xbdb50833	-0.088394545
134	0xbd924444	-0.07141927
135	0xbd81b611	-0.063335545
136	0x3bd228eb	0.006413569
137	0x3de2d52b	0.11075815
138	0x3da5ab3a	0.080892995
139	0x3d3ee835	0.04660817
140	0x3c8e74e5	0.017389724
141	0xbe006287	-0.12537585
142	0xbce23b66	-0.027616214
143	0x3caa699b	0.02080231
144	0x3cb24cf4	0.02176521
145	0x3d0b87a0	0.03406489
146	0x3da86633	0.08222618
147	0xbd1b52f3	-0.037920903
148	0x3dbea13d	0.093080975
149	0x3d5d23fb	0.05398939
150	0x3d57a6e8	0.05264941
151	0x3c4570e0	0.012050837
152	0xbc8bed27	-0.017080856
153	0xbcaa2f95	-0.020774642
154	0xbdd0945d	-0.10184548
155	0xbc5d1d79	-0.013495796
156	0xbd23d2ab	-0.03999583
157	0x3d5fe428	0.054660946
158	0x3d1e6618	0.038671583
159	0xbdcccccb	-0.09999999
160	0xbd37842d	-0.044803787
161	0xbd6c6ab3	-0.057718944
162	0x3c91a86b	0.017780503
163	0x3d84560e	0.06461726
164	0xbd75c471	-0.060001794
165	0x3d16167a	0.03664253
166	0x3d1e7645	0.03868701
167	0x3ce06931	0.02739391
168	0x3d84d93a	0.06486745
169	0xbd7f62ae	-0.062349968
170	0x3be70bee	0.0070509827
171	0xbdf94735	-0.12171785
172	0xbad560e8	-0.0016279491
173	0xbca0be70	-0.019622058
174	0xbe0bcaab	-0.1365153
175	0xbdbe4efb	-0.09292408
176	0xbe198825	-0.14993341
177	0x3d9111a8	0.07083446
178	0x3d888219	0.06665439
179	0xbd988e4e	-0.074490175
180	0xbd0ee2bb	-0.034884196
181	0x3d848594	0.064707905
182	0xbd316a60	-0.043314338
183	0xbda84fef	-0.08218371
184	0xbdbb9b71	-0.091605075
185	0xbbae40b2	-0.005317771
186	0xbc53229e	-0.012886671
187	0xbde4ac0b	-0.11165627
188	0xbdf851e1	-0.12124992
189	0xbd29ecfc	-0.04148577
190	0xbcd885d7	-0.026431007
191	0xbd702991	-0.05863339
192	0x3d854538	0.06507343
193	0x3dd827f2	0.10554494
194	0xbd851219	-0.064975925
195	0x3d4a19aa	0.04934088
196	0x3db9576a	0.09049876
197	0x3dc6a8fd	0.09700201
198	0xbcdb351b	-0.026758721
199	0xbc412ca4	-0.011790428
200	0x3c5eb930	0.013593957
201	0x3cdc1694	0.026866235
202	0x3c86730a	0.016412277
203	0xbd7f2b3a	-0.062297083
204	0x3d7958b6	0.060875617
205	0x3d657662	0.0560211
206	0x3bb4772c	0.0055073705
207	0xbe3d6a81	-0.1849766
208	0xbdc845e4	-0.097789556
209	0xbe0e8abb	-0.13920109
210	0x3de3af08	0.11117369
211	0xbd16c8b9	-0.036812518
212	0x3c995c97	0.018720908
213	0x3b01843b	0.0019762653
214	0x3d0d236c	0.03445761
215	0x3c986102	0.018600944
216	0xbda1a837	-0.078934126
217	0xbdb2a495	-0.08722798
218	0xbd86be5b	-0.06579276
219	0xbdeb8bae	-0.11501251
220	0xbe1536a8	-0.14571631
221	0xbe36db6a	-0.17857137
222	0xbdd29da0	-0.10283971
223	0xbb91d59a	-0.004450512
224	0xbd236837	-0.03989431
225	0x3d515649	0.05110768
226	0x3da1dc15	0.079033054
227	0x3d9dfb84	0.077139884
228	0x3dd47bab	0.1037515
229	0x3dc887ec	0.0979155
230	0x3d8af343	0.0678468
231	0xbaf4e26a	-0.0018683199
232	0x3d22844e	0.039676957
233	0x3cbe9738	0.023265466
234	0xbd88a53b	-0.0667214
235	0x3d8f1427	0.06986266
236	0xbc4bd769	-0.0124414945
237	0xbc94fa10	-0.018185645
238	0x3cc8a60c	0.02449324
239	0x3e017043	0.1264048
240	0xbe6cb4e5	-0.23115881
241	0xbdeff326	-0.11716299
242	0xbe2e29c1	-0.17008115
243	0x3c8a239c	0.016862683
244	0x3c1eff0f	0.009704365
245	0x3daaf8bc	0.083482236
246	0xbc06bad8	-0.008223258
247	0x3d618668	0.05505982
248	0x3c1a8995	0.009432216
249	0xbd3a465e	-0.045477264
250	0xbdadbab9	-0.0848288
251	0xbda327b2	-0.07966556
252	0x3c4b3946	0.012403792
253	0xbb38f508	-0.0028222222
254	0x3ac58a2c	0.0015071086
255	0x3d96616d	0.07342801

encoder.lstm.weight_hh_l0 f4 [512, 128]
0	0x3aa9009b	0.0012893857
1	0x3d904cf6	0.07045929
2	0x3c160f4e	0.009158922
3	0xbd5b3603	-0.053518306
4	0x3c5a952b	0.0133412285
5	0x3d1d2c88	0.038372546
6	0x3cd3ff96	0.025878709
7	0x3dd6c19d	0.104861476
8	0x3d6ecf53	0.05830319
9	0xbdc2ff21	-0.09521318
10	0x3d424e9e	0.047438256
11	0x3ceecb12	0.029149566
12	0xbd5bbea9	-0.053648625
13	0xbc831de8	-0.016005471
14	0xbb91561b	-0.0044353134
15	0xbd717b12	-0.05895526
16	0x3c487d79	0.012236946
17	0x3d1912cc	0.03737144
18	0xbb68d71d	-0.0035528608
19	0x3e5bd82c	0.21469182
20	0xbcbd9922	-0.023144308
21	0x3c311708	0.010808714
22	0xbd1aa701	-0.037756924
23	0x3ce5554d	0.027994776
24	0x3df07381	0.117407806
25	0x3d06632b	0.032809418
26	0x3e0b7f8a	0.13622871
27	0x3ce764f5	0.028246382
28	0xbc118bdb	-0.008883442
29	0xbbabf5e9	-0.0052478206
30	0x3d0b4465	0.034000773
31	0x3dd2423a	0.10266538
32	0xbde67971	-0.11253632
33	0x3dd30181	0.10303021
34	0xbd94d05b	-0.07266303
35	0xbcab1399	-0.020883368
36	0xbd62ee84	-0.055403247
37	0xbb7e5a39	-0.00388111
38	0x3d1a8749	0.037726674
39	0x3d1ce754	0.03830655
40	0x3cdb64d8	0.026781484
41	0xbddb4698	-0.10706824
42	0x3d2ce003	0.04220582
43	0x3b24e728	0.0025162194
44	0xbac4fafa	-0.001502841
45	0x3ddc8ab0	0.1076864
46	0x3ca5eb6b	0.020253858
47	0xbda12a64	-0.078694135
48	0xbd65c542	-0.056096323
49	0xbc327fa9	-0.010894694
50	0x3d4cfa2c	0.05004327
51	0xbd48b9d4	-0.049005345
52	0xbce9136c	-0.028451644
53	0xbcfb3fba	-0.030670036
54	0x3d8a7df9	0.067623086
55	0xbda7a967	-0.08186608
56	0xbd1c3b85	-0.0381427
57	0xbca05fa9	-0.019576864
58	0xbd578586	-0.052617572
59	0xbc7b2c35	-0.015330364
60	0xbd0cf490	-0.03441292
61	0x3da7a44e	0.081856355
62	0xbd2a63a6	-0.04159894
63	0xbd179f05	-0.037016887
64	0xbdb95233	-0.090488814
65	0x3dcbf915	0.09959618
66	0x3da1d193	0.07901301
67	0x3d9019a0	0.070361376
68	0xbdd1c50c	-0.10242662
69	0xbd6c7265	-0.057726283
70	0x3d6da234	0.058016017
71	0x3dac8e22	0.08425547
72	0xbdc58392	-0.09644236
73	0x3cdb2163	0.026749318
74	0xbcad120d	-0.021126771
75	0x3d66b4e2	0.056324847
76	0x3d4aa285	0.049471397
77	0x3e040447	0.12892257
78	0xbd27b61b	-0.040945154
79	0xbe455288	-0.19269764
80	0xbdcbb39f	-0.099463694
81	0x3dfed700	0.12443352
82	0xbb6dfecb	-0.0036315199
83	0x3be4664f	0.006970204
84	0x3d1b02c0	0.03784442
85	0xbdaf5fe8	-0.085632145
86	0xbd9cf291	-0.07663453
87	0x3d1cb704	0.038260475
88	0x3d10e317	0.03537282
89	0xbce8ab92	-0.028402124
90	0x3d160990	0.036630213
91	0x3dbb7e86	0.09154992
92	0x3d428d7f	0.047498222
93	0x3d7b39cd	0.06133442
94	0xbdb7542e	-0.08951603
95	0xbbd9e616	-0.006649743
96	0xbd324a3a	-0.04352782
97	0x3ba8a7ea	0.00514697
98	0xbe226d9e	-0.15862128
99	0xbdac4eb0	-0.08413446
100	0x3e002283	0.12513165
101	0x3d6cc602	0.057806022
102	0x3c09b92e	0.008405967
103	0x3d3d3925	0.046197075
104	0x3d4b2ab3	0.049601268
105	0xbd4b3180	-0.049607754
106	0xbe09099e	-0.13382575
107	0x3de39b4c	0.11113605
108	0x3d6f5afb	0.058436375
109	0xba832a44	-0.0010007103
110	0xbd025eed	-0.03182881
111	0x3d574024	0.052551404
112	0xbcf84969	-0.030308442
113	0x3d9f3a7b	0.07774826
114	0xba2c576d	-0.0006574307
115	0x3d2521b2	0.040315337
116	0x3d507d76	0.0509009
117	0x3c8f361e	0.01748186
118	0xbdc30429	-0.09522278
119	0x3d343914	0.043999746
120	0xbe04277e	-0.1290569
121	0xbdc418d1	-0.09575046
122	0xbca3eee4	-0.020011373
123	0xbd3d8078	-0.046265095
124	0x3d4bf787	0.049796607
125	0x3bb292b0	0.0054496154
126	0xbd0c9feb	-0.034332197
127	0xbd469616	-0.048482977
128	0xbc280e2d	-0.010257286
129	0xbce6adc7	-0.028159035
130	0x3daae11f	0.0834372
131	0xbd83a9a3	-0.0642884
132	0xbd031276	-0.032000028
133	0x3db1ca35	0.08681146
134	0xbd6357ec	-0.05550377
135	0xbcb9d4c9	-0.022684472
136	0x3dae0f87	0.08499055
137	0x3d50f73a	0.051017024
138	0xbca29eb3	-0.019851064
139	0x3db98c3b	0.0905995
140	0x3d9d9589	0.07694537
141	0xbd5f13f0	-0.054462373
142	0xbd5419a5	-0.05178227
143	0xbd788c1f	-0.060680505
144	0xbd566469	-0.052341852
145	0xbd66f9b2	-0.05639047
146	0x3cc9dbf7	0.02464102
147	0x3cdd8efc	0.02704572
148	0x3cb0c282	0.021577124
149	0xbdc87ac4	-0.09789041
150	0x3d45c310	0.04828173
151	0xbd92176d	-0.07133374
152	0xbbacdc56	-0.0052752895
153	0x3da0b32a	0.07846673
154	0xbd5088d2	-0.050911732
155	0x3d35ca46	0.044382356
156	0xbca79f98	-0.020461842
157	0x3d0ec882	0.034859188
158	0x3d4812d7	0.048846092
159	0xbd78ff03	-0.060790073
160	0xbda62ed4	-0.081144005
161	0x3d3d61ab	0.04623572
162	0x3dbce142	0.09222652
163	0xbd439d12	-0.047757216
164	0xbd859230	-0.06522024
165	0xbc963916	-0.018337768
166	0x3d588c0c	0.052867934
167	0x3d4f53df	0.050617095
168	0xbd942522	-0.07233645
169	0x3cf053e1	0.029336872
170	0xbdbb53c2	-0.09146835
171	0xbcee4f6d	-0.029090608
172	0x3d694a69	0.05695573
173	0x3d81432d	0.06311641
174	0x3d9a8f12	0.0754682
175	0xbc38d640	-0.01128155
176	0xbd5a80d8	-0.05334553
177	0x3cb6be84	0.022307642
178	0x3da78634	0.08179894
179	0x3da848bc	0.08216998
180	0xbd6eb6b4	-0.058279708
181	0x3d044658	0.032293648
182	0x3d1d6bf3	0.038433027
183	0x3d4f625c	0.050630912
184	0xbc5a5b7d	-0.013327477
185	0xbd955c0a	-0.07292946
186	0x3d99148d	0.07474623
187	0x3b49c1c9	0.003078567
188	0x3d0cf336	0.03441163
189	0xbd824d51	-0.06362403
190	0x3d2b55db	0.041829925
191	0xbd9e2366	-0.077215955
192	0x3cfbf817	0.030757947
193	0xbb9a31ec	-0.004705658
194	0x3d577741	0.052603964
195	0xbd19aabc	-0.03751634
196	0x3d0fd168	0.035111815
197	0x3d0d475e	0.03449189
198	0x3d936ed2	0.07198872
199	0x3dd1de1a	0.10247441
200	0xbd395091	-0.04524285
201	0xbd0d0276	-0.034426175
202	0xbdbc72ac	-0.092015594
203	0x3dd5aebd	0.10433719
204	0x3dc888be	0.097917065
205	0x3cb12d8e	0.021628167
206	0x3da8d209	0.08243186
207	0x3ce1c88d	0.02756145
208	0xbcdf4403	-0.02725411
209	0x3dc0b334	0.0940918
210	0xbd6578ca	-0.056023397
211	0xbda4c48f	-0.08045303
212	0xbcebccb0	-0.028784126
213	0xbd611035	-0.054947097
214	0xbc37dd52	-0.0112222005
215	0x3de5d200	0.11221695
216	0x3d35e5fa	0.044408776
217	0x3d5aac6b	0.053387087
218	0x3d00de72	0.03146214
219	0x3d97e599	0.07416839
220	0xbd47f54d	-0.04881792
221	0x3c032ad0	0.008005813
222	0xbcca9cba	-0.024732936
223	0xbc2355d0	-0.00996919
224	0x3b80b79e	0.003928139
225	0xbd608781	-0.054816727
226	0x3cce88ae	0.025211658
227	0x3cfae280	0.030625582
228	0x3da4c653	0.0804564
229	0x3dc33df5	0.09533302
230	0xbd7d72a8	-0.061876923
231	0xbcdf8306	-0.027284157
232	0x3d971ce4	0.07378557
233	0x3c8ddb88	0.017316595
234	0xbcbe4031	-0.023223968
235	0xbca2a19f	-0.019852458
236	0x3dbaf93f	0.09129571
237	0x3d8439a6	0.06456308
238	0xbcf46717	-0.029834313
239	0xbd61eac7	-0.05515554
240	0xbcb4c0f1	-0.022064658
241	0x3da5dcb2	0.08098735
242	0x3d4b9698	0.049704164
243	0x3d977a3a	0.0739636
244	0x3d8dbee1	0.06921173
245	0x3c987b70	0.018613547
246	0x3daa4354	0.08313623
247	0x39c6417a	0.00037814287
248	0xbd8cc3c7	-0.06873279
249	0xbdac56cb	-0.08414992
250	0x3c8b87cf	0.017032532
251	0xbcae717d	-0.02129435
252	0x3dba58a1	0.09098936
253	0xbca2a5ae	-0.019854393
254	0xbc07cd9b	-0.008288766
255	0x3d99dc37	0.07512706

encoder.lstm.bias_ih_l0 f4 [512]
0	0x3dfab64c	0.122418016
1	0x3c578c7c	0.013156053
2	0x3d911fb6	0.070861265
3	0xbca5dd05	-0.020246992
4	0x3d9ac91c	0.0755789
5	0x3d72d1ed	0.059282232
6	0x3dcb08bf	0.099137776
7	0x3d7ab82c	0.061210796
8	0xbd2ac351	-0.041690174
9	0x3dbb9c62	0.09160687
10	0x3d765272	0.06013722
11	0x3d9e2718	0.077223
12	0x3d524454	0.051334694
13	0xbd90977d	-0.07060144
14	0xbd59b7cb	-0.053153794
15	0x3bed7be9	0.0072474373
16	0x3d893dbf	0.0670123
17	0x3dba3acc	0.09093246
18	0x3e01fdaa	0.12694421
19	0x3d6b0710	0.057379782
20	0xbcf7b547	-0.030237807
21	0x3bed4bf3	0.00724172
22	0x3da74776	0.08167927
23	0xbd58d824	-0.052940503
24	0x3d251639	0.040304396
25	0x3d76731e	0.060168378
26	0x3cfa0621	0.0305205
27	0xbc47dabb	-0.0121981455
28	0xbd85649b	-0.065133296
29	0x3dc61bce	0.09673272
30	0x3d8ce31d	0.06879256
31	0xbd566107	-0.052338626
32	0xbdc1ce59	-0.09463186
33	0x3ddd5f12	0.10809149
34	0xbd601c5e	-0.054714553
35	0x3ddc6b6f	0.10762679
36	0xbd9005f1	-0.07032383
37	0x3db03cd9	0.08605356
38	0xbc3dcd7c	-0.011584636
39	0x3da02630	0.07819784
40	0xbd28cc79	-0.041210625
41	0x3d31396c	0.043267652
42	0xbd65e2d2	-0.056124516
43	0xbbc84acf	-0.0061124335
44	0x3d50f91e	0.051018827
45	0xbb34d086	-0.002759011
46	0x3da81f1b	0.08209058
47	0xbd450a05	-0.04810526
48	0x3d9c7d83	0.07641127
49	0x3da6b482	0.08139898
50	0xbcc90fe8	-0.024543718
51	0xbc6268e0	-0.013818949
52	0xbcff8a5e	-0.031193908
53	0xbd558e64	-0.052137747
54	0x3dba029b	0.09082528
55	0x3c07020a	0.008240232
56	0x3c18ce09	0.009326466
57	0xbd777afc	-0.06042002
58	0xba6f24d0	-0.0009122612
59	0xbd4fb161	-0.05070627
60	0x3d72fc76	0.059322797
61	0x3d38d503	0.04512502
62	0x3d66a2a5	0.056307454
63	0x3c8dda1f	0.017315922
64	0xbd3ba2a3	-0.0458094
65	0x3dc663a2	0.09686972
66	0x3d04d89a	0.03243313
67	0xbd6cf483	-0.057850372
68	0xbd75f520	-0.060048223
69	0x3cbaa0fd	0.022781843
70	0xbc2546ed	-0.010087711
71	0xbc140ffe	-0.009037016
72	0x3d557ba2	0.05211986
73	0x3dcb30cf	0.09921419
74	0x3d8de438	0.06928295
75	0x3de6b8c4	0.1126571
76	0x3d664ea2	0.056227334
77	0x3da8e738	0.082472265
78	0x3d57243e	0.052524798
79	0x3deb7e85	0.11498741
80	0xbd3e278a	-0.046424426
81	0x3d2bc9a7	0.041940358
82	0x3dbe8a5d	0.093037345
83	0x3de62dac	0.1123918
84	0x3d262369	0.040561114
85	0x3d51c16c	0.051209852
86	0x3d2f0459	0.042728756
87	0x3bd8f447	0.006620917
88	0xbc5dea57	-0.0135446405
89	0xbdcdeefa	-0.10055347
90	0x3ddf6cb4	0.10909405
91	0x3d01db12	0.031703062
92	0x3d97ffd0	0.07421839
93	0xbcb4ba46	-0.022061478
94	0x3d8ebfc1	0.06970168
95	0xbcf9481b	-0.03042989
96	0x3b8702f8	0.004120227
97	0x3d30eb6c	0.043193266
98	0xbd5c50ed	-0.053788114
99	0xbccc0b5d	-0.024907762
100	0xbd9167e8	-0.07099897
101	0x3d129c91	0.035793845
102	0x3b85f4af	0.0040880064
103	0x3d4d8bad	0.050182033
104	0x3dc88936	0.09791796
105	0xbc70ae6e	-0.014690025
106	0x3cb9830b	0.022645494
107	0x3ca5abc4	0.020223506
108	0xbccaac6a	-0.024740417
109	0x3c17ae32	0.00925784
110	0x3da1df67	0.07903939
111	0x3d5bad87	0.053632285
112	0x3db452c6	0.0880485
113	0xbdcfa373	-0.10138597
114	0xbd878f3f	-0.06619119
115	0xbc81b08f	-0.01583126
116	0x3c13bf40	0.0090177655
117	0x3de25a15	0.11052338
118	0x3d80b6d6	0.06284873
119	0x3c949d69	0.018141465
120	0x3d552eae	0.05204647
121	0x3cb6ceeb	0.022315463
122	0xbca4dd24	-0.02012498
123	0x3c312171	0.010811196
124	0xbc304f52	-0.010761099
125	0x3b7825bf	0.0037864295
126	0x3d114ce5	0.035473723
127	0x3b68f000	0.0035543442
128	0xb9bd3caa	-0.00036094087
129	0x3c1451d1	0.00905271
130	0x3d729aa3	0.059229504
131	0xbc91266f	-0.017718522
132	0xbd28015f	-0.041016933
133	0x3d78d6f1	0.06075186
134	0xbd7d1270	-0.06178516
135	0xbbfefc45	-0.0077815377
136	0xbda5830a	-0.08081634
137	0x3dc92214	0.09820953
138	0x3bdcff3e	0.0067442944
139	0xbd890cd9	-0.066919036
140	0xbd44a3be	-0.04800772
141	0xbd39a970	-0.045327604
142	0xbd09dd60	-0.033658385
143	0x3c885837	0.016643627
144	0xb938a8f9	-0.00017610555
145	0x3d5f4cd2	0.05451662
146	0xbc6ead18	-0.014567636
147	0xbb855b8c	-0.004069751
148	0x3dbd6904	0.09248546
149	0x3cd83fbb	0.026397577
150	0x3c5d0fb8	0.013492517
151	0xbca0d1ee	-0.019631352
152	0x3d7687e1	0.060188178
153	0xbca0d019	-0.019630479
154	0xbc6b8011	-0.014373795
155	0xbc6aa82c	-0.014322322
156	0xbd823f29	-0.06359703
157	0xbd1b5448	-0.037922174
158	0x3d0b81a4	0.03405918
159	0x3d245df3	0.04012866
160	0xbcb47932	-0.022030447
161	0xbca25814	-0.01981739
162	0x3db3a2d1	0.08771289
163	0xbd47845a	-0.048710205
164	0x3d93b355	0.07211939
165	0x3d893d6a	0.06701167
166	0x3da499c3	0.0803714
167	0xbd2d7a7b	-0.042353135
168	0x3d592a36	0.05301877
169	0x3cf663f3	0.030076956
170	0xbc49116d	-0.012272221
171	0x3d93e720	0.07221818
172	0xbd4948a2	-0.049141534
173	0x3dd54fd4	0.10415617
174	0xbb5ac050	-0.0033378787
175	0xbdbf7fd8	-0.09350556
176	0xbd834cbb	-0.064111196
177	0x3c271d0e	0.010199798
178	0xbc930453	-0.017946398
179	0xbd139772	-0.0360331
180	0xbd4e5938	-0.050378054
181	0x3d900b39	0.070333906
182	0x3da8db90	0.08245003
183	0x3dcee8b0	0.10102975
184	0xbdbc2ae0	-0.09187865
185	0x3db4660d	0.08808527
186	0xbc3940a7	-0.011306918
187	0xbcaa2260	-0.020768344
188	0x3b4578bd	0.003013178
189	0xbc00f919	-0.0078718895
190	0xbc260a98	-0.010134362
191	0x3de8679d	0.11347888
192	0xbd72d4ee	-0.059285097
193	0xbcce7151	-0.025200518
194	0xbb149d3e	-0.0022676731
195	0x3df3358c	0.11875448
196	0x3d0056c5	0.03133275
197	0x3dd4ac7a	0.1038446
198	0x3c0db98a	0.008650193
199	0x3db03259	0.08603353
200	0x3d248163	0.040162455
201	0x3d912628	0.07087356
202	0x3de124bc	0.10993335
203	0x3d8e74b2	0.069558516
204	0x3de3a698	0.111157596
205	0x3db54f66	0.08853035
206	0x3c5e97c0	0.013585985
207	0x3cd951b0	0.02652821
208	0x3d92aae0	0.07161498
209	0xbd2ae04e	-0.04171782
210	0x3d92418a	0.07141407
211	0x3c8277a7	0.015926195
212	0x3d10db1a	0.0353652
213	0xbd1e2910	-0.03861338
214	0xbc9b6b88	-0.018972173
215	0xbd04b07a	-0.032394864
216	0x3d8aec74	0.06783381
217	0xbd022514	-0.03177364
218	0x3c65b736	0.014020732
219	0x3dd69bd7	0.10478943
220	0x3df9d6ec	0.12199196
221	0x3dd337c5	0.103133716
222	0xbcb6d633	-0.022318935
223	0x3d25bbf5	0.040462453
224	0x3d51024e	0.05102759
225	0x3dda7b3d	0.10668037
226	0x3cf117e4	0.029430337
227	0x3ce34772	0.027744029
228	0xbc527e25	-0.012847458
229	0xbd88a2ff	-0.06671714
230	0x3d670983	0.056405555
231	0x3d9e8789	0.07740695
232	0x3cb90845	0.022586951
233	0x3d2d443c	0.0423014
234	0x3d8c80b7	0.06860488
235	0xbd40dbcf	-0.047084626
236	0x3d7fa801	0.06241608
237	0x3d9aa23c	0.07550475
238	0xbd418dbd	-0.047254313
239	0xbbc1bd0d	-0.005912429
240	0x3d23fabf	0.040034052
241	0x3d9e9ac2	0.077443615
242	0x3bfb2509	0.007664327
243	0xbd1ef5d7	-0.03880867
244	0xbd56dd6b	-0.052457254
245	0xbc828f23	-0.015937394
246	0xbd18f344	-0.03734137
247	0x3db27d09	0.08715255
248	0xbc97256f	-0.018450467
249	0x3cf3a277	0.029740555
250	0xbc985a8b	-0.018597862
251	0x3db098d8	0.08622903
252	0xbd33910a	-0.043839492
253	0x3d91459c	0.07093355
254	0x3d988f51	0.074492104
255	0xbdcb40a6	-0.0992444

encoder.lstm.bias_hh_l0 f4 [512]
0	0x3dedd17a	0.1161222
1	0x3d25dade	0.04049193
2	0x3bcb2a8c	0.0062001403
3	0xbbdb0f39	-0.0066851643
4	0xbc2ef9f6	-0.0106797125
5	0x3d708099	0.05871639
6	0xbd170f4b	-0.03687982
7	0x3da6317f	0.081149094
8	0xbc67c94d	-0.014147115
9	0x3a8d3158	0.0010772152
10	0x3d049c12	0.032375403
11	0xbd757722	-0.059928067
12	0x3b780f49	0.0037850908
13	0x3cad1882	0.02112985
14	0xbd1fbc9a	-0.038998224
15	0xbd501de6	-0.050809763
16	0xbd12a68b	-0.03580336
17	0xbb536a29	-0.0032259321
18	0x3c94687d	0.01811623
19	0xbd96505d	-0.07339547
20	0xbcd12154	-0.025528587
21	0x3d6e1362	0.058123954
22	0xbd1e4c1a	-0.038646795
23	0x3d8c744c	0.06858119
24	0x3cc886dd	0.02447837
25	0xbd9c372a	-0.07627709
26	0x3d9bfde3	0.076167844
27	0x3dc40085	0.095704116
28	0xbd8d3cdf	-0.06896376
29	0xbd39e555	-0.045384724
30	0x3b94eacf	0.004544593
31	0x3d21a919	0.039467905
32	0xbd0e0546	-0.034672998
33	0xbd0f4a1a	-0.034982778
34	0x3d9711a4	0.073764116
35	0xbd2e2f94	-0.042525843
36	0xbbdb52e5	-0.0066932314
37	0x3c6502e8	0.013977744
38	0x3d48d48e	0.049030833
39	0xbb384c72	-0.0028121737
40	0xbcda94ef	-0.026682345
41	0x3bc8a276	0.0061228825
42	0xbcafdddb	-0.021468094
43	0xbceaa86c	-0.028644763
44	0xbd223bdc	-0.039607868
45	0x3db58dbf	0.088649265
46	0x3d3a1d7f	0.045438286
47	0x3db67250	0.08908522
48	0xbcdeb6b2	-0.027186725
49	0xbd2c1260	-0.04200971
50	0x3be1f0d7	0.0068951654
51	0x3d215606	0.03938868
52	0x3d4931ba	0.04911969
53	0x3caf6ec1	0.021415116
54	0xbd612db1	-0.054975215
55	0x3d510464	0.051029578
56	0xbd3c6583	-0.045995247
57	0x3d11eec1	0.035628084
58	0xbd40c16c	-0.04705946
59	0x3da22d5f	0.0791881
60	0x3d7a85c4	0.061162725
61	0x3d9877bb	0.07444712
62	0xbd94334d	-0.07236347
63	0x3ba99b14	0.0051759575
64	0x3dc7363f	0.097271435
65	0x3d91caeb	0.07118782
66	0x3d8f9a20	0.07011819
67	0xbd9a252a	-0.0752662
68	0x3d4522e4	0.048128977
69	0x3dbc7097	0.09201162
70	0xbd082437	-0.033237662
71	0x3d4aea6b	0.049539965
72	0x3d85c516	0.06531732
73	0x3d930ec8	0.07180554
74	0x3c27f517	0.010251305
75	0x3b9a5d64	0.00471084
76	0x3d26c444	0.040714517
77	0x3dbc0d52	0.09182228
78	0xbd8005c8	-0.06251103
79	0x3de9a42a	0.11408265
80	0x3d6d87ea	0.057990946
81	0x3d0a9e89	0.033842597
82	0x3d8a4be8	0.06752759
83	0x3d16036b	0.036624353
84	0x3b6fb2a5	0.0036574986
85	0xbb51ad0f	-0.003199402
86	0x3d82c08e	0.06384383
87	0xbcab3802	-0.02090073
88	0x3c5827e3	0.0131931035
89	0xbe122420	-0.14271593
90	0x3d8766da	0.06611414
91	0x3da8ae28	0.08236343
92	0x3cd0644b	0.025438448
93	0xbc5b37a3	-0.013379964
94	0xba81c834	-0.0009901584
95	0xbc0b93e1	-0.008519144
96	0xbcefd082	-0.029274229
97	0x3cd677f5	0.026180247
98	0x3cfb24f7	0.030657275
99	0x3db9eb14	0.09078041
100	0xbc90363f	-0.017603992
101	0x3c8862be	0.016648646
102	0xbd6f2e77	-0.05839392
103	0xbcdcc18f	-0.026947765
104	0x3dee2294	0.11627689
105	0xbd2dc557	-0.042424526
106	0x3cf4c43b	0.029878726
107	0xbd12903f	-0.035782095
108	0xbc6044f6	-0.013688317
109	0x3d659c7e	0.056057446
110	0xbcf4c84d	-0.029880667
111	0xbca0db35	-0.019635776
112	0x3d90c285	0.07068352
113	0xbd0055ed	-0.031331945
114	0x3db4d7dd	0.08830235
115	0x3d981e7b	0.07427689
116	0x3d26f527	0.04076114
117	0xbd624bb5	-0.05524798
118	0x3d0fff46	0.035155557
119	0x3dd6d959	0.104906745
120	0x3db07c84	0.086174995
121	0x3db7a36d	0.08966718
122	0xbbb56acf	-0.005536414
123	0x3d4f1731	0.050559226
124	0x3d8a5715	0.06754891
125	0xbd4eb39e	-0.050464265
126	0x3d6b8fff	0.057510372
127	0x3cc38fee	0.023872342
128	0xbc22994e	-0.009924246
129	0x3d4a3fe6	0.049377345
130	0x3e0b7000	0.13616943
131	0x3b3d52eb	0.0028888534
132	0x3c5987f7	0.013277045
133	0x3da1118a	0.078646734
134	0xbd8d0e46	-0.06887488
135	0x3ccca7f0	0.024982423
136	0x3d86db95	0.06584851
137	0x3c8a21bb	0.016861787
138	0xbd371089	-0.044693504
139	0xbd613ac0	-0.05498767
140	0xbb1df044	-0.0024099508
141	0x3bce74bc	0.006300537
142	0x3d4c46ee	0.04987233
143	0x3abe65d8	0.0014526201
144	0x3d836eb9	0.06417603
145	0xbb4e0950	-0.0031438656
146	0x3b2f297b	0.0026727605
147	0x3e103a48	0.14084733
148	0x3ddac769	0.10682566
149	0x3d30e0d7	0.043183174
150	0xbc941031	-0.018074127
151	0xbd4a23aa	-0.04935042
152	0x3cb1d209	0.021706598
153	0x3d5ca8b0	0.05387181
154	0xbc8a229a	-0.016862202
155	0x3c9379a6	0.018002342
156	0xbc1637fb	-0.00916862
157	0xbb932a8a	-0.004491155
158	0x3d6c30e8	0.057663828
159	0xbcbc4c81	-0.022985699
160	0x3d5f168e	0.05446487
161	0x3d269b97	0.040675726
162	0x3db5af33	0.08871307
163	0x3cf94bfe	0.030431744
164	0x3d4dd6c0	0.05025363
165	0xbd075c3b	-0.033046942
166	0x3c8760a6	0.016525578
167	0xbd3dda17	-0.046350565
168	0x3dead916	0.11467187
169	0x3d28c747	0.04120567
170	0xbce0bd7e	-0.027434107
171	0x3d0560ce	0.032563023
172	0x3c7de3df	0.015496223
173	0x3d82fbb1	0.063956626
174	0x3c3f460a	0.011674413
175	0xba0252b4	-0.000497143
176	0x3dae530d	0.085119344
177	0xbd08673a	-0.03330157
178	0x3de84789	0.11341769
179	0x3de17c01	0.1100998
180	0x3d161be4	0.036647692
181	0xbd19365a	-0.03740535
182	0xbcf61aa7	-0.030042006
183	0x3d049183	0.032365333
184	0x3ce10a02	0.027470592
185	0xbc8dfeeb	-0.017333468
186	0x3b27a598	0.002558088
187	0x3d9d899c	0.076922625
188	0xbc6dc524	-0.014512334
189	0x3d653ba5	0.055965085
190	0x3dcc2219	0.09967441
191	0x3d7bf1ee	0.06151002
192	0xbd8ebd62	-0.06969716
193	0x3deef398	0.116675556
194	0xbb5479c0	-0.0032421201
195	0xbce3e2b7	-0.027818067
196	0xbcd3bd95	-0.025847236
197	0xbc85441a	-0.016267825
198	0x3dce40ad	0.1007093
199	0x3d7d6e61	0.061872844
200	0x3d69e3d3	0.057102036
201	0x3a339fc3	0.00068521145
202	0x3dc581fc	0.09643933
203	0x3ded3931	0.11583174
204	0x3d167262	0.036730178
205	0xbb9045f7	-0.0044028717
206	0x3d07848a	0.033085383
207	0xbb37376b	-0.0027956616
208	0xbd2eb081	-0.042648796
209	0x3d6f305e	0.058395736
210	0x3ddfa673	0.109204195
211	0x3b296b14	0.0025851177
212	0xbd43c466	-0.047794722
213	0x3d01c988	0.031686336
214	0x3d1ce86f	0.038307603
215	0x3ded9201	0.11600114
216	0x3df20d57	0.118189506
217	0x3d81a4ed	0.06330285
218	0x3de984c6	0.11402278
219	0xbbafe0de	-0.0053673824
220	0x3d6c7dbd	0.0577371
221	0xbc9656b3	-0.018351888
222	0xbd091319	-0.03346548
223	0x3dc6fb5f	0.09715914
224	0xbd040048	-0.03222683
225	0xbbe1f7ca	-0.006895994
226	0xbd5a19db	-0.053247314
227	0x3dadea23	0.08491924
228	0xbc9cc3a4	-0.019136257
229	0x3d4a8ada	0.049448825
230	0xb98450b4	-0.0002523713
231	0x3d3a599b	0.04549561
232	0xbced172f	-0.028941719
233	0x3dc2451d	0.094858386
234	0x3ce7e87c	0.0283091
235	0x3d6530fd	0.055954922
236	0xbd5b9932	-0.053612895
237	0xbd4f573a	-0.050620295
238	0x3d8fca1e	0.07020973
239	0xbaffd47a	-0.0019518279
240	0x3d925b1d	0.07146285
241	0x3c019a44	0.007910315
242	0x3c44f22e	0.012020631
243	0x3dc8c691	0.098034985
244	0x3ca1b8cd	0.01974144
245	0xbbc19ffc	-0.005908964
246	0x3d5615dc	0.05226694
247	0xbd1ae54b	-0.037816327
248	0x3c10de52	0.008842068
249	0x3d91430a	0.07092865
250	0xbc4bb150	-0.012432411
251	0xbd3a8967	-0.045541193
252	0xbc781dd0	-0.015143827
253	0xbbc66778	-0.006054815
254	0xbcd72bb7	-0.026265962
255	0xbbc21982	-0.005923451

decoder.lstm.weight_ih_l0 f4 [512, 128]
0	0xbceb93be	-0.028756972
1	0x3d354f5e	0.044265144
2	0xbd853cff	-0.06505775
3	0xbcdf57f8	-0.027263626
4	0xbd96063d	-0.073254086
5	0xbd8d0042	-0.06884815
6	0xbcebe056	-0.028793495
7	0xbda5d0d1	-0.08096469
8	0xbc8463ac	-0.016160809
9	0x3d8ea001	0.06964112
10	0xbcba80d8	-0.022766516
11	0x3d93fcab	0.07225927
12	0xbda61f12	-0.08111395
13	0x3d8404ef	0.064462535
14	0x3d155a0a	0.03646282
15	0xbd66e141	-0.056367163
16	0xbda01c8f	-0.07817947
17	0x3d467386	0.048450015
18	0xbca5e468	-0.020250514
19	0xbdaabc2a	-0.08336671
20	0x3d747fe2	0.05969227
21	0x3db24479	0.087044664
22	0xbd0a6f1c	-0.03379737
23	0xbcdd22ec	-0.026994191
24	0xbb77a120	-0.0037785247
25	0x3d349496	0.044087015
26	0xbc2736f8	-0.010205977
27	0x3cb99ae0	0.022656858
28	0xbce7955c	-0.028269462
29	0x3cebb3d8	0.02877228
30	0xbd94134a	-0.072302416
31	0x3caf4bf4	0.021398522
32	0x3d96b0b3	0.073579215
33	0x3d907f07	0.070554785
34	0x3d868b31	0.065695174
35	0x3cc90018	0.024536178
36	0x3dacb565	0.08433036
37	0xbda3b0ad	-0.079926826
38	0x3b4fbb40	0.0031697303
39	0xbd71c36c	-0.05902426
40	0x3d9119e7	0.070850186
41	0xbd98c474	-0.074593455
42	0x3d2a7db6	0.041623794
43	0xbc2a9390	-0.010411158
44	0xbcbd7e94	-0.023131646
45	0xbc87be48	-0.016570225
46	0xbd7f248e	-0.06229072
47	0x3d6dd716	0.05806645
48	0xbcb5acf4	-0.022177197
49	0xbcae0738	-0.021243677
50	0x3d6b63de	0.057468288
51	0x3cbcb1f4	0.023034073
52	0xbd8e7d8e	-0.069575414
53	0xb9a18500	-0.00030807406
54	0x3da29225	0.07938031
55	0x3d42fa8a	0.047602214
56	0xbc6d2b28	-0.014475621
57	0x3db44693	0.088025235
58	0x3ba38860	0.0049906224
59	0x3da167b9	0.07881112
60	0x3d0e6e0c	0.034772918
61	0x3cd8a5b4	0.0264462
62	0x3c900514	0.017580546
63	0xbd5e95ec	-0.054342195
64	0xbd55c890	-0.052193224
65	0x3ca6ecf0	0.020376652
66	0x3bbe57a0	0.0058087856
67	0x3c82f158	0.015984222
68	0xbc086e28	-0.008327045
69	0x3c6e8368	0.014557697
70	0x3d740286	0.05957272
71	0x3dad4025	0.084595
72	0xbcc5922c	-0.024117552
73	0xbc9a1428	-0.01880844
74	0xbd5db08e	-0.054123454
75	0xbc840f64	-0.01612062
76	0x3d9a3375	0.07529346
77	0x3b855dc0	0.0040700138
78	0x3d1edd96	0.03878554
79	0x3da15063	0.07876661
80	0x3cd9f6ec	0.026607
81	0x3d47c62a	0.04877297
82	0x3d44b6f2	0.048026033
83	0xbd9b0e28	-0.075710595
84	0x3c132610	0.008981243
85	0x3d830d9b	0.063990794
86	0x3d87bd41	0.06627894
87	0x3cb06c54	0.02153603
88	0x3ce1fc90	0.027586251
89	0xbd48d1a2	-0.049028046
90	0xbd027e90	-0.03185898
91	0x3d2b0dfe	0.04176139
92	0xbd34ee22	-0.044172414
93	0x3c6b4950	0.014360741
94	0x3d8647c7	0.06556659
95	0xbcf137c4	-0.029445536
96	0x3c946dbc	0.018118732
97	0xbd772502	-0.060338028
98	0xbdb382e3	-0.08765199
99	0x3d314a86	0.04328396
100	0xbc1300f0	-0.0089723915
101	0xbb640ca0	-0.0034797564
102	0xbd40e684	-0.047094837
103	0x3d95c5bf	0.07313108
104	0xbcca64ec	-0.024706326
105	0x3d93d4e5	0.07218341
106	0x3c839f28	0.016067103
107	0xbcd5a048	-0.026077405
108	0xbd5b64fe	-0.05356311
109	0xbd95bc35	-0.07311288
110	0xbb0d39a0	-0.002154924
111	0xba9a1500	-0.0011755526
112	0xbd1e3f84	-0.038634792
113	0x3db41635	0.08793298
114	0x3d00b4b6	0.03142234
115	0xbb652ca0	-0.0034969226
116	0xbbd09530	-0.006365441
117	0x3cee652c	0.029100977
118	0x3d4528d2	0.048134632
119	0xbd6cb9ae	-0.057794265
120	0x3db1869f	0.08668255
121	0x3d560fce	0.052261166
122	0x3bb59f90	0.005542703
123	0xbd92d2e4	-0.071691304
124	0xbd0c5f8b	-0.034270804
125	0x3d9f8f5d	0.07791016
126	0x3cbb8d1c	0.022894435
127	0x3d944913	0.072405
128	0x3d8323c3	0.064033054
129	0xbc0920c0	-0.008369625
130	0x3dadbeb9	0.08483643
131	0xbc54f5b8	-0.012998037
132	0x3d36519e	0.04451143
133	0x3d87c7f1	0.06629933
134	0xbc856d3c	-0.016287439
135	0xbcf0c702	-0.02939177
136	0x3ce26a9c	0.027638726
137	0xbd409965	-0.04702129
138	0xbda7abe8	-0.081870854
139	0xbc72abc0	-0.014811456
140	0x3d74fabe	0.05980944
141	0xbc80722c	-0.015679441
142	0xbd1962cf	-0.037447747
143	0xbce8776e	-0.028377261
144	0xbd402ee6	-0.046919726
145	0x3d907e39	0.07055325
146	0xbcae75d0	-0.021296412
147	0xbceb492a	-0.02872141
148	0xbce3949a	-0.02778082
149	0x3d78fca2	0.060787804
150	0x3d7d22fe	0.06180095
151	0xbc58bed0	-0.013229087
152	0x3d94d73b	0.072676145
153	0x3bed1710	0.0072354153
154	0x3c882014	0.016616859
155	0xbd604479	-0.0547528
156	0xbd743352	-0.059619255
157	0xbd9f0501	-0.07764626
158	0x3cb46258	0.02201955
159	0x3db1495d	0.08656571
160	0xbd05faca	-0.032709874
161	0x3dae3687	0.08506494
162	0xbceed824	-0.029155798
163	0x3d9a3fe3	0.07531717
164	0xbceb26b8	-0.028704986
165	0x3bbd8a30	0.0057842955
166	0xbc8c4034	-0.017120458
167	0x3d145304	0.036211982
168	0xbc9fbbfc	-0.019498818
169	0xbd8d81b2	-0.06909503
170	0x3c02b580	0.007977843
171	0x3d9ce493	0.076607846
172	0xbd71e8d4	-0.059059933
173	0xbd516fe2	-0.05113209
174	0xbd96182d	-0.0732883
175	0x3d42be02	0.047544487
176	0x3d5df4fe	0.05418872
177	0xbd8f96cd	-0.07011185
178	0x39937300	0.00028123707
179	0x3cb10fd0	0.021613985
180	0x3da90295	0.082524456
181	0x3da5089f	0.08058285
182	0x3d9277cb	0.07151755
183	0x3cf60e3c	0.030036084
184	0x3c834d84	0.016028173
185	0xbcd30820	-0.02576071
186	0x3d2f0b82	0.042735584
187	0xbdb36d1d	-0.08761046
188	0xbd41dd21	-0.047330026
189	0x3d7362aa	0.059420265
190	0x3d02fb44	0.031977907
191	0xbd7c3bd4	-0.061580494
192	0x3d7f615e	0.062348716
193	0x3d58588a	0.052818812
194	0x3c824814	0.01590351
195	0xbd11afd4	-0.035568073
196	0x3c5e3b10	0.013563886
197	0x3d9df5ed	0.07712922
198	0xbd8674e0	-0.06565261
199	0x3da4c5e9	0.08045561
200	0x3d80891f	0.06276154
201	0xbd8b7f22	-0.06811358
202	0xbd307bc8	-0.043086797
203	0xbd7dc619	-0.0619565
204	0xbd69f635	-0.057119567
205	0x3d711f8e	0.058867984
206	0x3b89f760	0.0042103976
207	0xbdaabc2a	-0.08336671
208	0xbd029d69	-0.0318884
209	0x3d9d5715	0.07682625
210	0xbd1585bc	-0.036504492
211	0x3d7a6c12	0.06113822
212	0xbcf3ff3a	-0.029784787
213	0x3c04ceb8	0.008105926
214	0x3d84d121	0.06485201
215	0x3d92d7b5	0.07170049
216	0xbda5d7d4	-0.080978066
217	0xbd91b9d2	-0.071155205
218	0x3d4cf98a	0.050042666
219	0xbc4e5d00	-0.012595415
220	0x3b5a0a00	0.003327012
221	0xbd751f0a	-0.059844054
222	0x3d27d24e	0.040972047
223	0x3c9aca3c	0.018895261
224	0x3d897e8f	0.06713592
225	0x3d24a1b2	0.040193267
226	0x3d4f438a	0.05060152
227	0xbd359473	-0.044331025
228	0x3cccc2cc	0.02499523
229	0x3d92cd81	0.07168103
230	0xbd2ddf66	-0.042449377
231	0x3d3fa86e	0.046791486
232	0x3db3db85	0.087821044
233	0x3d9fc525	0.07801274
234	0x3ce96498	0.02849035
235	0xbc806390	-0.015672475
236	0x3d3daee2	0.04630936
237	0xbd304e26	-0.04304328
238	0x3d1c7256	0.038194977
239	0x3d1e043a	0.03857825
240	0xbbbe9ca0	-0.005817011
241	0x3d67bf1a	0.056578733
242	0x3ca75f1c	0.020431094
243	0x3966f000	0.00022023916
244	0x3d0037da	0.031303264
245	0x3c2fcb10	0.010729566
246	0xbce169d0	-0.027516276
247	0x3d94c129	0.07263405
248	0xbd4df5df	-0.05028331
249	0xbd2bd9b2	-0.041955657
250	0xbdad12f6	-0.08450882
251	0x3da0dd03	0.07854655
252	0xbd327543	-0.04356886
253	0xbcebf4b4	-0.028803207
254	0x3d157f76	0.03649851
255	0xbd1a39c8	-0.03765276

decoder.lstm.weight_hh_l0 f4 [512, 128]
0	0x3d92c58b	0.071665846
1	0x3e0fe617	0.14052616
2	0x3d7a6921	0.061135415
3	0x3c5f593d	0.013632116
4	0x3d92ace6	0.07161884
5	0xbdaa4a42	-0.08314945
6	0xbd81851d	-0.063242175
7	0x3ceff7e9	0.029293017
8	0xbcb52e4d	-0.022116804
9	0xbd5a6010	-0.05331427
10	0x3c8f7df0	0.017516106
11	0xbdb65b4b	-0.089041315
12	0xbc979341	-0.018502833
13	0xbcb92d53	-0.02260462
14	0x3b394f8c	0.0028276173
15	0xbdae9f5a	-0.08526488
16	0xbdd5df79	-0.10443015
17	0xbdecc17b	-0.11560341
18	0xbd064cea	-0.032788195
19	0xbcdd55c6	-0.027018439
20	0xbd13999d	-0.03603517
21	0xbdb7741a	-0.089576915
22	0xbe089c9e	-0.13340995
23	0xbc9846b2	-0.018588398
24	0xbcd44ca8	-0.025915459
25	0x3d3de0ec	0.04635708
26	0x3ddd74c2	0.108132854
27	0xbe0abca0	-0.13548517
28	0x3d1d7496	0.038441263
29	0xbdd5f097	-0.104462795
30	0x3d759764	0.05995883
31	0xbde4eb1f	-0.11177658
32	0x3da53364	0.080664426
33	0x3c54e364	0.012993667
34	0x3d854c26	0.06508665
35	0xbd245bd5	-0.04012664
36	0x3d9ad249	0.0755964
37	0xbd45b61f	-0.048269387
38	0x3bf708bf	0.0075388844
39	0xbe02cc19	-0.1277317
40	0xbe0896c5	-0.13338764
41	0x3d1daad0	0.038492978
42	0xbd891f6f	-0.066954486
43	0xbd0a7b50	-0.033809006
44	0xbc984690	-0.018588334
45	0x3dccd3e4	0.100013524
46	0x3c9122c2	0.01771677
47	0xbb158225	-0.0022813168
48	0xbd263308	-0.04057601
49	0x3d806fdb	0.06271335
50	0x3dace95f	0.084429495
51	0x3ce690e5	0.028145263
52	0xbcad0035	-0.021118263
53	0xbd444320	-0.047915578
54	0xbbfa68c4	-0.0076418836
55	0x3ca8111f	0.020515976
56	0x3d5341e4	0.05157651
57	0xbd04a703	-0.032385837
58	0x3dae2f17	0.085050754
59	0x3dc55157	0.09634655
60	0x3d66055d	0.05615746
61	0x3dbb0a76	0.09132855
62	0xbd2c8cef	-0.042126592
63	0xbcd5149b	-0.026010802
64	0x3db8cfdd	0.09024022
65	0xbc8a2047	-0.016861094
66	0x3d06d317	0.032916155
67	0x3e016202	0.12635043
68	0x3e074073	0.13208179
69	0x3db0fce1	0.08641983
70	0x3d9dfc16	0.07714097
71	0x3de1053a	0.10987325
72	0x3cbfae5b	0.023398569
73	0xbd1bd102	-0.038041122
74	0xbcb24335	-0.021760562
75	0x3d97cb95	0.07411877
76	0x3da69e4b	0.08135661
77	0x3dcc40e8	0.099733174
78	0x3cdf091c	0.027226023
79	0x3d741762	0.059592612
80	0xbc446533	-0.011987018
81	0x3d561fcf	0.05227643
82	0xbd3d40fb	-0.04620455
83	0x3d1b0d88	0.0378547
84	0x3dc07651	0.09397567
85	0x397c1e89	0.00024043968
86	0xbd7d4909	-0.06183723
87	0xbb990099	-0.0046692607
88	0xbd046def	-0.032331403
89	0xbd4dc632	-0.050237842
90	0xbc650cc8	-0.013980098
91	0x3dfcba8f	0.12340271
92	0xbd7c98cc	-0.061669156
93	0x3d908865	0.07057265
94	0xbd941450	-0.07230437
95	0x3def12a2	0.11673476
96	0xbd03bee8	-0.032164484
97	0x3d9293b5	0.07157079
98	0x3d75de1d	0.060026277
99	0x3d3cdb79	0.046107743
100	0xbdf85e81	-0.121274
101	0x3d08c087	0.033386733
102	0xbcdefc5d	-0.027219946
103	0x3de24e4b	0.110500894
104	0x3d94e5e1	0.072704084
105	0x3ddb7879	0.10716338
106	0xbd7c0208	-0.061525375
107	0xbdf8fa8b	-0.12157162
108	0xbdf66149	-0.120302744
109	0xbdc01a38	-0.09380001
110	0xbdd8ab1f	-0.10579514
111	0x3dce6fe5	0.10079936
112	0x3dd00bd7	0.10158508
113	0x3bcbee3f	0.0062234695
114	0x3d8f1b85	0.06987671
115	0x3c20bd23	0.009810719
116	0x3dbcc256	0.09216754
117	0xbcea425b	-0.028596094
118	0xbd553342	-0.052050836
119	0xbbea435e	-0.007149144
120	0x3cef4b9d	0.02921086
121	0xbd5bff89	-0.053710494
122	0xbd445c1f	-0.047939416
123	0xb9c223e3	-0.000370293
124	0x3decbf67	0.115599446
125	0x3cf3c1eb	0.029755553
126	0x3cdc36f0	0.026881665
127	0x3b924f7a	0.0044650408
128	0xbca25121	-0.019814076
129	0x3c8aec0f	0.016958265
130	0x3d62cbc6	0.055370115
131	0x3d5351b8	0.051591605
132	0x3d0e270e	0.034705214
133	0x3d954ba6	0.072898194
134	0x3c83d8d4	0.016094603
135	0xbce62875	-0.028095463
136	0x3dc87d48	0.097895205
137	0xbd9b15e5	-0.075725354
138	0x3d1738ed	0.036919523
139	0x3ca81444	0.020517476
140	0x39d3aa4d	0.0004037194
141	0xbc1f08c0	-0.009706676
142	0xbd6bf589	-0.057607207
143	0xbcb385e7	-0.021914436
144	0x3cc22a3c	0.02370178
145	0xbc05ce86	-0.008166915
146	0x3cab39e8	0.020901635
147	0xba9a0417	-0.0011750486
148	0xbc7c1191	-0.0153850475
149	0x3cbd71b8	0.023125514
150	0xbd7f19a0	-0.062280297
151	0x3d18ccbf	0.037304636
152	0xbd8a625c	-0.06757042
153	0xbcf9ee85	-0.030509243
154	0xbc75e105	-0.015007262
155	0xbde8661b	-0.113476
156	0x3b99fca3	0.004699306
157	0xbdaa9266	-0.083287045
158	0x3d7ba5f9	0.06143758
159	0xbdb23012	-0.08700575
160	0x3d3e18fd	0.04641055
161	0x3dd68a92	0.10475649
162	0xbd8374fd	-0.06418798
163	0xbde5cf53	-0.112211846
164	0x3d64d8cc	0.055870816
165	0x3b9add80	0.004726112
166	0xbdf094ab	-0.11747106
167	0xbd8e0a3b	-0.06935545
168	0xbc73ae28	-0.014873065
169	0x3d975b48	0.073904574
170	0xbd9c9e7e	-0.076474175
171	0x3dff5401	0.12467194
172	0xb9d0a250	-0.00039793784
173	0x3cf0c7cb	0.029392144
174	0x3df28add	0.11842892
175	0xbca4ade2	-0.020102445
176	0x3d68d49b	0.05684338
177	0x3ba65389	0.005075876
178	0x3d6eb85e	0.058281295
179	0x3d83de91	0.064389355
180	0x3d5372be	0.0516231
181	0x3cdae0e5	0.026718566
182	0x3ceed255	0.029153029
183	0x3c203ba8	0.009779848
184	0x3d2daadd	0.042399276
185	0xbb4092ed	-0.002938445
186	0xbd6a53d3	-0.057208847
187	0x3dacc7c0	0.08436537
188	0xbbf30eb8	-0.007417526
189	0x3dc60671	0.09669197
190	0x3daa3913	0.08311667
191	0xbd962864	-0.07331923
192	0x3dbb0e21	0.09133554
193	0x3d8a6803	0.0675812
194	0x3c23b7ee	0.009992583
195	0xbc8a36ea	-0.016871888
196	0xbd40df77	-0.047088113
197	0x3c81b0d6	0.015831392
198	0x3ce52954	0.027973808
199	0x3dbe0398	0.09278029
200	0x3d8fe79b	0.07026597
201	0x3d17fe4f	0.037107762
202	0x3d6428a3	0.055702817
203	0x3dce5d72	0.10076417
204	0x3e08285c	0.13296646
205	0xbca791d6	-0.020455282
206	0x3c4b2cac	0.012400787
207	0x3cb24fff	0.02176666
208	0x3bc3693d	0.005963473
209	0x3b1a5f42	0.0023555313
210	0xbdb8d692	-0.09025301
211	0xbb254830	-0.002522003
212	0xbc84e16c	-0.01622077
213	0xbd214ffc	-0.03938292
214	0x3ce1e70c	0.027575992
215	0xbc0ff1b0	-0.00878565
216	0x3d977372	0.07395066
217	0x3da8770a	0.0822583
218	0xbc6c411d	-0.014419821
219	0xba1cda72	-0.00059834786
220	0xbe12edc6	-0.14348516
221	0x3d8b8753	0.068129204
222	0x394e5cb5	0.00019680227
223	0x3ca15d93	0.01969794
224	0xbd26499a	-0.040597536
225	0xbd7d1a3c	-0.061792597
226	0xbc63d6b2	-0.013906168
227	0x3dc52cc6	0.096276805
228	0x3c97ed29	0.018545704
229	0xbd47b878	-0.048759907
230	0x3d774bf8	0.060375184
231	0xbd0757b4	-0.033042625
232	0xbc3cb59a	-0.011517907
233	0xbcba6ba2	-0.022756401
234	0xbd47751c	-0.04869567
235	0x3c8d0322	0.017213408
236	0x3ce27625	0.027644226
237	0x3c938d74	0.018011786
238	0xbd0c61e3	-0.03427304
239	0xbcbf06b2	-0.023318622
240	0xbd781fbd	-0.060577143
241	0x3e276ae8	0.16349375
242	0xbd37ee38	-0.044904917
243	0xbdb43739	-0.087995954
244	0xbbc3f14a	-0.0059796916
245	0xbc95e69a	-0.018298436
246	0xbce802ea	-0.028321702
247	0x3dacf3cd	0.08444939
248	0xbda98cbd	-0.08278797
249	0xbe20984e	-0.156831
250	0x3d71c14f	0.059022244
251	0xbdb9c79c	-0.090712756
252	0x3d9e4702	0.077283874
253	0xbabe2294	-0.0014506155
254	0xbd030c00	-0.031993866
255	0x3cfa9502	0.03058863

decoder.lstm.bias_ih_l0 f4 [512]
0	0x3d44e8d4	0.048073605
1	0x3c822d6a	0.015890796
2	0xbd28d230	-0.041216075
3	0x3dcc113b	0.09964224
4	0x3d811561	0.06302906
5	0xbc31cb83	-0.010851744
6	0x3cee841f	0.029115735
7	0xbd88ea07	-0.06685262
8	0x3bd89006	0.006608966
9	0x3c638915	0.013887663
10	0x3d910170	0.07080352
11	0xbc6d9080	-0.0144997835
12	0x3d3be515	0.045872767
13	0x3da32759	0.07966489
14	0x3d0727e6	0.032997034
15	0xbb929519	-0.00447334
16	0x3b50c22d	0.003185402
17	0x3d816f9d	0.06320117
18	0x3d913f61	0.07092167
19	0x3cb8511b	0.022499612
20	0x3dada7c0	0.084792614
21	0xbb20f481	-0.0024559798
22	0xbb9be6b0	-0.0047577247
23	0xbaf1a95a	-0.0018437312
24	0x3d0b065b	0.033941608
25	0xbd812341	-0.06305552
26	0x3d840bc7	0.06447559
27	0x3c98182a	0.01856621
28	0x3d69d621	0.057088975
29	0xbcfd822d	-0.030945862
30	0xbc98e639	-0.018664466
31	0x3d357b1a	0.044306852
32	0x3dbb2477	0.091378145
33	0xbd194ca6	-0.037426613
34	0x3cc1e3a5	0.02366812
35	0xbcd32d44	-0.02577842
36	0x3d83d05a	0.06436224
37	0xbc51a61b	-0.01279595
38	0x3d02f62d	0.031973053
39	0xbd3fe3d5	-0.046848137
40	0x3df2f69e	0.11863445
41	0x3dd4a5fd	0.10383222
42	0x3c926fb9	0.01787554
43	0x3d38a778	0.045081586
44	0x3e4a71bb	0.19769947
45	0xbd1f82e2	-0.03894318
46	0xbd36a36d	-0.04458945
47	0xbd2a64cc	-0.041600034
48	0x3d7961f0	0.060884416
49	0x3cb49c0a	0.022047061
50	0xbb0bfead	-0.0021361515
51	0xbd07050d	-0.0329638
52	0x3dcb3bf9	0.09923548
53	0x3c1aaf3e	0.009441195
54	0xbc43fbde	-0.011961905
55	0xbd9a9d79	-0.07549567
56	0xbc64cdce	-0.013965083
57	0xbcf26817	-0.02959065
58	0xbcb8746d	-0.022516454
59	0xbc236257	-0.0099721765
60	0x3d5d623a	0.054048754
61	0x3dccf498	0.1000759
62	0x3d8c99ff	0.0686531
63	0xbd5a777a	-0.053336598
64	0x3bf7b622	0.0075595537
65	0x3d4ffb73	0.05077691
66	0xbd6706a2	-0.05640281
67	0x3cfdd16a	0.030983645
68	0x3c875aca	0.016522784
69	0x3d84951f	0.06473755
70	0xbc2deb22	-0.010615142
71	0x3be63d45	0.007026347
72	0x3d351b7e	0.04421567
73	0xbce3c598	-0.027804181
74	0x3d41f16e	0.047349386
75	0x3d6cebce	0.05784207
76	0xbd0e96ea	-0.03481189
77	0xbd3399af	-0.043847736
78	0xbd3e8f03	-0.046523105
79	0x3dc2d87d	0.09513948
80	0xba3492c2	-0.00068883237
81	0xbc45dd6d	-0.012076718
82	0xbc33a53a	-0.010964686
83	0x3dd2c3f4	0.10291281
84	0x3cf7fbcf	0.030271439
85	0x3cdf3039	0.027244674
86	0x3dad8436	0.08472483
87	0x3baac081	0.0052109365
88	0x3d186f81	0.037215713
89	0xbcc255c6	-0.02372254
90	0x3c8713f6	0.01648901
91	0x3d9abac8	0.07555157
92	0x3d91b4b7	0.07114547
93	0x3d95c96b	0.07313808
94	0xbd8924da	-0.06696482
95	0x3cad0875	0.021122197
96	0x3ddc2acf	0.107503526
97	0x3d18eeaf	0.037337
98	0x3d6a02e1	0.05713165
99	0xbd815373	-0.06314745
100	0x3d96cb22	0.07362963
101	0xbd0dbecf	-0.034605797
102	0x3de31693	0.1108829
103	0xbd4da689	-0.05020765
104	0x3d37cb3b	0.04487155
105	0x3cc65df2	0.024214718
106	0x3d9b1885	0.07573036
107	0x3d3afc0f	0.045650538
108	0x3da7b9c5	0.081897296
109	0x3d373750	0.044730484
110	0x3df00730	0.11720121
111	0x3d7748da	0.06037221
112	0x3bc22b13	0.005925545
113	0x3dee9172	0.11648835
114	0x3b9f6c7b	0.004865227
115	0x3c85c2a7	0.016328169
116	0x3dd81120	0.10550141
117	0x3d5018a0	0.050804734
118	0x3d658778	0.056037396
119	0x3bc1902d	0.0059070797
120	0x3cebe3b5	0.028795103
121	0x3c2b3e88	0.01045192
122	0xbd96c677	-0.07362073
123	0x3d3fa962	0.046792395
124	0xbcdc9da4	-0.026930638
125	0x3d324da5	0.04353108
126	0xbd25dd0c	-0.04049401
127	0xbb1bbb01	-0.0023762586
128	0x3dfedf49	0.12444932
129	0xbd09bfc7	-0.03363016
130	0x3d828015	0.06372086
131	0x3dd6a616	0.10480897
132	0xbda4a197	-0.08038633
133	0x3d3e5b49	0.046473775
134	0xbd92e3ac	-0.07172331
135	0x3d17790a	0.036980666
136	0x3db3e0b5	0.08783094
137	0x3d94e4f1	0.072702296
138	0xbd71a4aa	-0.058994927
139	0xbd35bc9c	-0.044369325
140	0x3c7ac1bb	0.015304978
141	0x3d2b06b3	0.041754436
142	0xbd17cf4f	-0.03706294
143	0xbdb3b13c	-0.08774039
144	0xbdaa567f	-0.08317279
145	0xbd4c35a4	-0.049855843
146	0xbcc05c25	-0.023481438
147	0xbcf58ea3	-0.029975241
148	0x3d266d77	0.040631738
149	0x3cc1c43e	0.023653146
150	0xbce57c81	-0.02801347
151	0x3e4c167d	0.19930454
152	0x3cc2fae4	0.023801275
153	0x3c6ef540	0.014584839
154	0xbd9bc863	-0.0760658
155	0x3d3c5ddf	0.04598796
156	0xbc2d1896	-0.010564944
157	0xbd2e4258	-0.04254374
158	0x3cb8593d	0.02250349
159	0x3d9cc721	0.07655168
160	0xbc6547fd	-0.013994214
161	0xbcdbdc11	-0.026838334
162	0xbd4c5afb	-0.049891453
163	0xbce459c9	-0.027874844
164	0xbd3d90c4	-0.046280637
165	0xbb6ea022	-0.0036411365
166	0x3cc36fba	0.023856986
167	0xbcb03afd	-0.021512503
168	0xbd964d86	-0.07339005
169	0xbbcddcf6	-0.006282444
170	0xbd074cbd	-0.033032168
171	0x3d2d7fa1	0.042358045
172	0x3e005235	0.1253136
173	0x3d4157d2	0.047202893
174	0xbc9ba35c	-0.018998794
175	0x3de13081	0.109955795
176	0xbd13e529	-0.036107216
177	0xbcb8bbf9	-0.02255057
178	0x3da25fc1	0.0792842
179	0x3d9c1249	0.07620675
180	0xbdeca13e	-0.11554192
181	0x3dbd887a	0.092545465
182	0x3d363779	0.044486497
183	0xbda9257f	-0.08259105
184	0xbceb3eb3	-0.02871642
185	0x3d4d0e73	0.050062608
186	0x3dc9e854	0.09858766
187	0xbd9b6c5d	-0.07589028
188	0x3d1aa1b8	0.037751883
189	0x3dc6a6e2	0.09699799
190	0x3c8ffa0b	0.017575284
191	0x3da2a66f	0.07941901
192	0xbd21a667	-0.039465334
193	0xbc8ef9fc	-0.017453186
194	0xbdb752f2	-0.089513674
195	0x3c7f4297	0.015579841
196	0xbddfc714	-0.10926643
197	0x3bc6e6f5	0.0060700127
198	0x3d2f3aa9	0.042780552
199	0x3cc60fc8	0.024177447
200	0x3d8d76d4	0.0690743
201	0xbcd948e7	-0.02652402
202	0x3e3fd93c	0.18735212
203	0xbc29f685	-0.010373716
204	0x3cbcd660	0.02305144
205	0x3c9e356e	0.019312587
206	0xbd41881d	-0.04724895
207	0xbd015166	-0.03157177
208	0xbd2d9e79	-0.04238746
209	0xbc83415f	-0.016022382
210	0x3ce78da7	0.028265787
211	0x3c02230c	0.007942926
212	0xbdadcc59	-0.08486242
213	0x3d98d248	0.07461983
214	0xbc496ed6	-0.012294492
215	0xbc9723d2	-0.018449698
216	0x3be36968	0.0069400556
217	0x3c8aa7d5	0.016925732
218	0x3c93ff71	0.01806614
219	0xbd1b28fa	-0.037880875
220	0x3d838f9f	0.06423878
221	0x3d461e34	0.048368648
222	0x3d4a8ea2	0.04945243
223	0x3d8a9309	0.06766326
224	0x3dbffad8	0.093740165
225	0xbcb48a7c	-0.02203869
226	0xbda83eb7	-0.08215087
227	0xbd402791	-0.046912733
228	0xbda148cf	-0.07875215
229	0x3dca31a7	0.09872752
230	0xbdc5cb0d	-0.096578695
231	0xbd8ec6e1	-0.06971527
232	0x3d82e25a	0.063908294
233	0x3dd2848c	0.102791876
234	0xbd38893c	-0.045052752
235	0xbda11e59	-0.078671165
236	0x3c17b5f2	0.009259688
237	0xbcc2a4b2	-0.023760173
238	0xbd19a891	-0.037514273
239	0xbdc18425	-0.09449033
240	0xbd134269	-0.035952006
241	0x3e095ff7	0.13415514
242	0xbbff4607	-0.0077903303
243	0xbdc7e82f	-0.097610824
244	0x3cf7d464	0.030252643
245	0xbcd9ea81	-0.026601078
246	0xbdcaacb6	-0.09896223
247	0xbd0ebf35	-0.034850318
248	0x3dbd5307	0.09244352
249	0x3db17d26	0.08666448
250	0x3cd7359c	0.02627068
251	0xbd82f90a	-0.06395157
252	0x3d65b5a7	0.05608144
253	0x3d2b5567	0.041829493
254	0xbd83c3f4	-0.064338595
255	0x3d1c4bb8	0.03815815
